model-quantized.tflite (tflite, 455848 bytes, 20 tensors)

model/dense_1/MatMul f4 [2, 256]
000000 38 05 a7 bd a1 f1 aa bd 45 de 01 3d e6 8b ae 3d
       -0.08155292 -0.08346868 0.031706113 0.08522777
000010 ab cc 16 3e c7 be 6e bd 38 e1 1e 3d b9 40 0c be
       0.14726512 -0.05828741 0.038789004 -0.13696565
000020 82 cb a8 3d a0 7d e6 bc 00 5f dc bc d0 8a d8 3d
       0.08241941 -0.028136075 -0.026900768 0.105733514
000030 14 1b 60 3d a1 aa a8 bd 4b 1e 12 3e f7 06 dd bd
       0.054713324 -0.0823567 0.14269368 -0.10792344
000040 d7 8d de 3d 08 42 52 3c 28 37 a2 bd 66 cb c1 3d
       0.108668976 0.012833126 -0.079206765 0.09462623
000050 e9 b8 c1 bd 03 b9 34 3c 9e 49 83 bd 51 81 fe bd
       -0.09459097 0.011030438 -0.06410526 -0.12427009
000060 62 e0 79 3d bf 8f ab bd 49 be d3 3d ad 47 03 bd
       0.061005004 -0.08377027 0.103390284 -0.032050777
000070 b5 83 d2 bd be 69 69 bd 80 21 c9 3d 4f ae 24 3d
       -0.102790274 -0.05698561 0.09820843 0.040205296
000080 2f 5c 10 bd 6d 92 16 3d 3e 97 5f 39 fd 66 dd bd
       -0.035244163 0.036760736 0.0002132328 -0.10810659
000090 ba 77 b9 3d f9 b5 56 3d ee c2 a8 3d 17 f3 99 bc
       0.09056039 0.052419636 0.08240305 -0.018792672
0000a0 52 84 11 3e 7e e6 f8 3d 24 ee 26 3c e6 98 de 3d
       0.14210632 0.12153338 0.010188613 0.10869007
0000b0 25 67 89 3d 77 c1 87 bc 54 27 c1 bd a4 8d 08 be
       0.067091264 -0.016571743 -0.09431329 -0.13335282
0000c0 bb f0 7e bd 28 89 91 3d d4 40 5a bd 0d 5f 1f 3d
       -0.062241297 0.071062386 -0.05328448 0.038909007
0000d0 4c 19 7c bc fb 8c 1a bd 13 29 da 3a a9 03 4a bd
       -0.015386891 -0.037732106 0.0016644321 -0.049319897
0000e0 02 ba f9 bd ad 67 60 bc 77 4a 18 3c 1e be 06 3e
       -0.12193681 -0.013696593 0.009295098 0.13158461
0000f0 30 7a fd 3c c0 f8 3f bd ac 14 18 be 48 11 13 3e
       0.030942053 -0.046868086 -0.14851636 0.14362061
000100 ab dc d4 bc d6 02 d8 3c ad 32 6a 3d c4 85 cf bd
       -0.025984129 0.02636854 0.057177234 -0.10132936
000110 26 e8 7a 3d 7f fd 0e bc 1a 84 15 3e 08 7e e4 3d
       0.06125655 -0.00872743 0.14601174 0.11156851
000120 8c 2b 3f 3d 87 32 03 3d ac d3 22 be 3c 8f d1 bd
       0.04667239 0.03203061 -0.15901059 -0.10232398
000130 2b 4d 47 3d d2 75 47 3b e0 bf 02 be 31 71 c9 bd
       0.048657577 0.0030435217 -0.12768507 -0.09836043
000140 db 35 e7 bd b6 15 1c 3d eb 23 6f bd 1d a8 b2 bd
       -0.11289569 0.038106643 -0.058383863 -0.08723471
000150 66 94 f2 3d 41 aa d3 3d d0 ae 9d bd 4a df eb 3d
       0.11844711 0.10335208 -0.076993585 0.115171984
000160 9d 3d 0f 3e b3 26 56 bd 6b c6 bc 3d 6f 43 2b 3d
       0.13988347 -0.052283 0.09217533 0.041812357
000170 ad c0 8b bd 90 06 86 bd 3c 0f 1a 3e 10 3a bf bd
       -0.06823859 -0.065442204 0.15044874 -0.093372464
000180 8b ca 8d bc 46 78 92 bd 16 13 9a 3a 78 58 0f 3e
       -0.017308494 -0.071518466 0.0011754956 0.13998592
000190 8f 25 6a 3d 48 b9 bf bd 8b 5b 33 3a 4d 5c 01 3e
       0.057164725 -0.093615115 0.0006841949 0.12632866
0001a0 54 d0 ec bd c8 1d c6 bd d5 0c c9 bd f0 cc 19 3d
       -0.11563173 -0.09673649 -0.09816901 0.03754896
0001b0 33 53 93 3d 80 be 88 bd dd 6b 12 be 90 79 54 3d
       0.07193603 -0.0667696 -0.14298959 0.051873744
0001c0 61 77 0c bc 4c 06 fc bd 9e 25 5a 3d c6 2f ad 3c
       -0.008573384 -0.123058885 0.05325853 0.021140944
0001d0 4b 19 f6 bd c3 ef 6a bd a2 b6 0e 3e ef 56 2e 3b
       -0.12016543 -0.05735756 0.13936856 0.002660211
0001e0 b4 73 30 3d a2 27 03 be 51 b0 dd 3d ac 60 50 3d
       0.043079093 -0.12808087 0.10824645 0.050873443
0001f0 d6 14 9e 3d 7a fa 17 3e 11 40 46 3d c5 1c bb 3d
       0.07718818 0.14841643 0.048400942 0.09136347
000200 27 00 07 3d 74 5f 16 bd 72 fb 74 3d e8 05 a8 bb
       0.03295913 -0.036712125 0.05981011 -0.005127657
000210 00 9c eb bd ae bb 15 bd ea b9 60 bc 2b 6d 2a bc
       -0.11504364 -0.03655594 -0.0137162 -0.010402004
000220 04 e4 7d 39 62 10 14 be a0 b3 15 be 35 61 86 3c
       0.00024212903 -0.14459375 -0.14619303 0.016403774
000230 6a f1 31 bd a1 90 7a bd 25 b0 aa 3d 74 e5 f3 bd
       -0.04344312 -0.061173085 0.08334378 -0.11908999
000240 fd 57 ca 3b 69 8c 9b 3d cf fc e3 3c 50 2c 5e bb
       0.00617504 0.075951405 0.02783051 -0.0033900924
000250 f2 69 c2 bd ac 19 9a 3c 84 44 06 3e a1 13 f5 bd
       -0.09492864 0.01881107 0.13112074 -0.119666345
000260 16 de 77 3d 64 9d 9f 3d a8 e5 86 bd 3c ba 6a 3d
       0.060514532 0.07793692 -0.06586772 0.057306513
000270 af a7 f7 bd c8 8c ec 3d bb 6c 0f bc 6b 29 67 3d
       -0.1209253 0.115502894 -0.008753951 0.056435984
000280 8e 42 eb 3c d1 3e 05 bd ac 50 37 3b 2a b4 c4 3d
       0.02871826 -0.03253061 0.0027971668 0.09604676
000290 4d a7 0b 3d 1b 9b 75 bd 55 aa f8 bd 28 32 47 3d
       0.034095097 -0.059962373 -0.12141863 0.048631817
0002a0 94 20 7a 3c 39 06 4e 3d 09 3a f1 3d 0e f1 02 be
       0.015266556 0.050298903 0.117786475 -0.12787268
0002b0 8d 5b 27 bd f3 c0 1d 3e d9 6c c3 3c b4 6e 0a be
       -0.040858794 0.15405636 0.023855614 -0.13518792
0002c0 63 ae e2 bd 63 8f e6 3d 98 06 87 3d e3 f6 91 3d
       -0.11068418 0.112578176 0.065930545 0.07127168
0002d0 f2 70 a4 3c b2 33 ab bd c0 9d 53 3d 0a d6 9a bd
       0.020073388 -0.083594695 0.051664114 -0.07560356
0002e0 1c 85 12 3e 4e 43 ad bc d0 30 f1 bd 6c 6e e5 bd
       0.1430859 -0.021150257 -0.11776888 -0.11202702
0002f0 67 8b 49 bd ae 4a 11 be ed ce 00 3e 36 85 dd bd
       -0.04920521 -0.14188644 0.12578936 -0.108164236
000300 27 91 9c 3d ed f7 20 bc 35 e1 04 3d b4 57 39 bc
       0.07644873 -0.009824735 0.032441337 -0.011312414
000310 25 3e 37 3d 5e e0 82 3d 73 aa 38 bd d3 56 2e be
       0.044737 0.06390451 -0.045084428 -0.17025308
000320 38 a0 a7 bd b5 2a 09 be eb 96 a1 3c 4a 4a d4 bc
       -0.08184856 -0.13395198 0.019725284 -0.02591433
000330 46 cd 84 bd f9 35 d8 bd e7 5e 30 bd 12 cc 0b 3e
       -0.06484465 -0.105571695 -0.043059256 0.13652065
000340 4d a6 c4 bc 36 b6 6a 3c dd 2d 1b 3e 5f f3 e2 bd
       -0.02400508 0.014325669 0.15154214 -0.110815756
000350 c4 e2 d3 3d cb f4 04 bd da 86 ed bb 6e fb b1 3c
       0.103459865 -0.032460015 -0.0072487416 0.021726336
000360 3c 92 42 bc d7 a0 d7 bd 9a d5 24 be e3 c3 9b 3d
       -0.011875685 -0.10528725 -0.16097108 0.07605722
000370 2c 11 ec 3d aa 2d 0c 3d 21 a3 44 bd a9 93 14 3e
       0.11526713 0.034223236 -0.048007134 0.14509453
000380 15 9c 50 3d 58 48 c8 bc e3 f7 3f bc 30 da c8 3d
       0.0509301 -0.024448559 -0.011716816 0.09807241
000390 1f 6f 33 3d ae 47 15 be ae 5b 06 3e f4 41 d1 bb
       0.043807145 -0.14578125 0.1312091 -0.006386036
0003a0 cb 58 49 bd 68 09 c2 bd 4f f8 db 3d b9 66 ce 3d
       -0.049156945 -0.0947445 0.107407205 0.100781865
0003b0 52 e3 82 3d 1d 81 e7 bd 9e 68 1a 3d 4f e6 9f ba
       0.06391014 -0.11303923 0.037697427 -0.0012199375
0003c0 cb 4b 7d bd 4f a3 bf 3d 8b 4f 03 3e 1d 0c 06 be
       -0.06183986 0.093573205 0.12823312 -0.13090558
0003d0 79 7a 1a be 51 c8 c8 3d cd ff 85 bd f6 26 10 3e
       -0.15085782 0.09803832 -0.06542931 0.14077362
0003e0 89 3b d9 3d f1 45 dc bc 98 02 ee 3b 28 6c 92 3d
       0.106070586 -0.02688882 0.007263493 0.071495354
0003f0 62 2b ec 3d 2a 34 fa bd d3 e4 fc bc af 7b ac 3d
       0.11531712 -0.12216981 -0.03087083 0.08422028

model/dense_1/BiasAdd/ReadVariableOp f4 [2]
000000 63 e8 81 bc 2b e8 81 3c
       -0.015857881 0.015857777

model/dense/BiasAdd/ReadVariableOp f4 [256]
000000 66 62 c2 3c 84 cd 2c bc a3 a0 e4 3c f9 75 90 3a
       0.02372856 -0.010547046 0.027908629 0.0011021487
000010 46 80 b4 bb 58 5a d7 3c bd 05 46 bc 27 68 1f 3d
       -0.0055084554 0.026288196 -0.012086329 0.038917687
000020 11 90 4d bc dd ad c1 ba c2 0d 62 bc a7 ac 9c 3b
       -0.012546555 -0.0014776547 -0.013797225 0.004781324
000030 ba 7a 55 bc 70 f5 c4 3a 90 78 d5 bb 93 63 e8 3b
       -0.013029749 0.0015026759 -0.0065146163 0.0070919483
000040 7c ce 09 bc c5 d5 8d 3c f8 fc f2 3c b8 f2 33 bd
       -0.008411046 0.017313847 0.02966164 -0.043932647
000050 02 cb c5 bb 7c bf 14 bc 52 d6 03 3d e7 db 0d b9
       -0.0060361633 -0.009078857 0.032186814 -0.00013528728
000060 51 89 32 3d 57 a9 06 bc 07 88 e6 ba 5c b2 c8 3c
       0.043587986 -0.008219085 -0.0017588147 0.02449911
000070 0e 8e b7 bb 82 63 a0 3c 3b 4e 0e bc dd 0a 02 3d
       -0.005601651 0.019578699 -0.008685644 0.03174864
000080 10 69 72 bc 98 84 c9 bb 67 22 5e 3b 94 04 8a 3c
       -0.014795557 -0.0061498396 0.0033895017 0.016847886
000090 88 ab 4c bb 56 79 5a bb ff e7 50 3d 1f d9 04 bc
       -0.003123017 -0.0033336482 0.0510025 -0.008108406
0000a0 16 ad a7 bb c3 35 5b bc 5f 6b b6 bb 91 19 11 bc
       -0.005117069 -0.013379517 -0.005566999 -0.008856193
0000b0 73 76 22 bb dd 3c 1f bc c9 be c0 3c 57 40 39 3d
       -0.002478984 -0.009719101 0.023528473 0.045227375
0000c0 00 83 8a 3c 02 b1 a6 bb b4 96 3f bc be 01 c2 3c
       0.016908169 -0.005087019 -0.011693645 0.023682471
0000d0 05 ea 0e 3d c4 02 c5 bc 29 75 b4 3c 22 b9 07 3d
       0.034891147 -0.02404917 0.022028523 0.03313554
0000e0 d3 f8 22 3b 9d 7d 8e bc e4 a2 e2 bb f2 35 53 bc
       0.002486755 -0.017393881 -0.0069163907 -0.0128912795
0000f0 8f 1d c5 3b f0 71 ee bb 6f 4e ff 3c 28 3e a0 ba
       0.0060154865 -0.007276766 0.03116533 -0.0012225555
000100 0c 4e 22 3d b1 ab c9 bb 97 ba 14 bc 7b e2 9f 3c
       0.039625213 -0.0061545004 -0.00907769 0.019517174
000110 24 26 34 bc b1 0e 10 bc 32 7a 30 3c d3 05 18 bc
       -0.010995422 -0.008792565 0.010771321 -0.009278732
000120 92 f9 09 bc 2e ff f0 bb d6 8d 3c bd a6 6b b2 3c
       -0.008421319 -0.0073546385 -0.046033703 0.021779846
000130 45 b8 ca 3c ab ca 10 bc 89 47 01 3d d7 fd 6e 3c
       0.02474607 -0.008837382 0.031562362 0.014586887
000140 cc 41 f3 3c 1f eb ab 3c 63 d9 c1 3c 42 cf 4b bc
       0.02969446 0.020986138 0.023663228 -0.012439551
000150 53 c9 40 bc 22 01 2a bc ce 49 30 bb a9 33 07 bb
       -0.011766749 -0.010376247 -0.002689946 -0.0020630157
000160 eb 25 56 bc 4e 6f 81 3c c5 db e5 bb 90 ee de 3c
       -0.013070564 0.015800145 -0.007014724 0.027213365
000170 2f 64 5a 3d b0 9f b0 3b 4b 38 83 3a b5 bb 11 3d
       0.0533182 0.00539013 0.0010011283 0.035579402
000180 5c f2 1d bc 7f 15 f7 3b af 78 7b 3b 86 6e 12 bc
       -0.0096403025 0.0075404043 0.0038371494 -0.008937484
000190 b3 08 0e 3d aa 71 ad 3c c7 5f 25 3c 07 ee 08 3d
       0.034676265 0.021172363 0.010093636 0.033430126
0001a0 3e 73 fe 3c 51 9e 33 3a 2a eb b0 3c 20 09 2c 3c
       0.031060811 0.0006851899 0.02159651 0.010500222
0001b0 c0 a3 ea ba 73 90 05 3a dc d2 c7 3c 0d 1c 73 3b
       -0.0017901585 0.0005095072 0.024392538 0.0037095577
0001c0 5b 67 70 3c f2 a0 98 bc 07 c4 3d bb 40 7e 8d bb
       0.014673079 -0.018631432 -0.0028955953 -0.0043180287
0001d0 bf 21 0c bd 6f 2d 6c bc 12 d1 3c 3b 3c 88 2b bc
       -0.03421187 -0.014415129 0.002881114 -0.0104694925
0001e0 b2 63 bb bb 13 4c f3 3c 4f ef 10 ba f6 1e 33 3c
       -0.0057186717 0.029699361 -0.0005528824 0.010932675
0001f0 73 3c 89 bc 98 77 3a 3b a3 e8 c1 bc 6a 41 21 bc
       -0.016752457 0.002845263 -0.0236705 -0.009842256
000200 fb 5e 49 bc c2 ba 3e bc 45 ae 54 bc 7b ba 58 bb
       -0.0122907115 -0.011641206 -0.012981002 -0.0033070135
000210 23 22 e5 3c df a0 8c bc 38 fa d4 bc 55 43 c9 bb
       0.02797038 -0.017166553 -0.02599822 -0.00614206
000220 7a f7 45 bc e3 7f 99 3c bb 5c 92 3c 1e 58 ed bb
       -0.012082929 0.018737739 0.017866483 -0.0072431704
000230 63 56 f5 3a cd 51 fa 3c 6a 20 4d bc be 8d 58 3c
       0.0018717762 0.030556584 -0.012519935 0.013217388
000240 46 63 f1 3a 34 75 b2 39 be c6 1a 3d 6f 9c a4 3b
       0.0018416427 0.0003403813 0.03778719 0.005023531
000250 4b 2d fb bb 47 b3 84 3c 1f 05 ca 3b df cc 13 3d
       -0.0076653115 0.016198767 0.0061651613 0.036084052
000260 9e 4a bd 3b e6 62 d9 bb 23 8b dc 3c 4b 84 09 bc
       0.0057767173 -0.006634104 0.026921814 -0.0083933575
000270 79 56 57 bd 4a ce c5 bb 51 b2 21 3b 7b 93 c3 3a
       -0.0525727 -0.0060365545 0.0024672935 0.0014921272
000280 69 40 3a bc 41 9f 95 3c f2 5c d9 3c d8 ed 58 bc
       -0.011367896 0.018264415 0.026533578 -0.0132403
000290 d0 63 58 bb af 83 80 3c 1c c7 78 3c 1d 36 2a bb
       -0.0033018477 0.015687792 0.01518419 -0.0025972195
0002a0 59 29 24 bc 71 c4 1d bc 01 2f a4 bc b9 07 dd bb
       -0.010019624 -0.009629355 -0.020041944 -0.0067453054
0002b0 9e 7e 7f bb df 61 53 3c 78 a7 99 bc ac 85 fb bb
       -0.0038985382 0.012901752 -0.018756613 -0.007675847
0002c0 1b 54 c2 bc 6d 12 42 3d 8c f2 d4 3b ad 3b 8e bc
       -0.023721745 0.047380853 0.0064986404 -0.01736244
0002d0 fe 51 7e 3c fb 47 b2 3c 43 a1 34 3d af a2 a6 bc
       0.015522478 0.021762839 0.044099104 -0.020341245
0002e0 dd 3a 36 bb 83 03 14 3d 36 ba 6a 3c 73 75 61 bd
       -0.0027806081 0.03613616 0.014326623 -0.05504365
0002f0 f2 7f dc 3c c1 3d cb 3c d4 f6 60 bc b5 a8 bd bc
       0.026916478 0.02480972 -0.013730723 -0.023151735
000300 0f 7a 82 bb ea 43 bb 3c ea fd 10 bd 10 80 77 3a
       -0.0039818357 0.022859532 -0.0353984 0.0009441385
000310 29 77 37 bc 5f be 4f 3a 0d 43 39 bc a2 dc 38 bd
       -0.011197844 0.0007924791 -0.01130749 -0.045132287
000320 74 d8 f8 3c 30 6e b2 3c 5d fd 14 3c 80 ec 5d 3a
       0.03037665 0.021781057 0.00909361 0.0008465722
000330 e2 c0 9d 3c 82 9e 82 bb 1c b1 1d 3c 13 56 9c ba
       0.019257013 -0.0039861808 0.009624746 -0.0011927508
000340 e9 25 68 bb f8 55 3b 3d 2f 01 b9 ba b4 f4 6d 3c
       -0.0035422987 0.045736283 -0.0014114733 0.014523674
000350 ee b2 af 3b 39 71 f9 3c 3d cf 26 bb 55 13 85 3c
       0.0053619063 0.030449497 -0.0025453113 0.01624457
000360 54 89 1b 3d f8 d9 8a bb 90 37 36 3d 23 c8 2c bc
       0.037972763 -0.0042374097 0.044486582 -0.010545763
000370 01 1d 70 bc 6a 3f 37 bc b5 cf 45 bb df 87 a2 bc
       -0.014655353 -0.011184553 -0.0030183617 -0.019840179
000380 2d 6a 82 3c ad 28 96 3c b2 64 fe bb aa 0f 0d 3d
       0.01591977 0.018329943 -0.0077634687 0.034438767
000390 66 56 66 bc 99 dd d1 3c ec 71 52 bc 58 37 1f bb
       -0.014058685 0.025618361 -0.012844544 -0.0024294462
0003a0 07 a0 87 3c ed 24 b5 3c ae d2 70 3b 2b 41 9b 3c
       0.0165558 0.022112334 0.0036746669 0.018951973
0003b0 14 ce e2 3c ee 54 bf bb 7f 1f 80 bb 35 95 31 3b
       0.027686156 -0.005838982 -0.0039100046 0.002709699
0003c0 37 65 44 3d 43 69 bc 3c 31 79 f8 bb 67 f0 c4 3c
       0.04794809 0.022999411 -0.0075828065 0.024040414
0003d0 54 1e 40 3d c3 fb 71 bc e6 24 23 3d 80 14 4f bb
       0.046903923 -0.014769497 0.03983011 -0.0031597912
0003e0 5e e1 26 bc 19 d6 03 3c 62 d5 f4 bb 00 36 97 3c
       -0.010185568 0.00804665 -0.0074717263 0.018458366
0003f0 6c a9 01 bc 55 f4 27 3d 7c d1 6a 3d 6f d6 10 3c
       -0.0079139285 0.041004498 0.057328686 0.008840187

model/conv2d/BiasAdd/ReadVariableOp f4 [16]
000000 c6 58 c6 b9 6b 87 0f bc d8 8f 74 bd 6c 0b ee 3a
       -0.00037831644 -0.0087603135 -0.059707493 0.0018161363
000010 23 60 05 3d 78 71 49 bd 9f 94 28 3b 55 82 22 bd
       0.032562386 -0.049180478 0.002572335 -0.039675076
000020 b1 68 38 bd dd 2e d0 3b c6 9c 10 3c 53 eb da 3b
       -0.045021717 0.006353243 0.00882644 0.006680885
000030 91 71 e6 3c 70 bf 23 3a e0 f1 88 bd 36 56 e7 bc
       0.028130325 0.0006246483 -0.06686759 -0.02823935

model/conv2d_1/BiasAdd/ReadVariableOp f4 [16]
000000 15 33 8e bb a6 d7 3d 3c 10 3c 3c 3c f9 f8 b2 3c
       -0.0043395855 0.011587059 0.011488929 0.021847235
000010 be 7d 27 3c 3e 4b 0e 3c 7f 14 8c 3c 2b 2e b7 bc
       0.01022285 0.008684931 0.017099617 -0.022360882
000020 39 9a 52 bd b7 da 5e 3c a4 ef 99 3c 5e 5c b2 bb
       -0.05141661 0.01360195 0.018791027 -0.00544314
000030 c1 48 f5 3b 4e 87 1a bd a3 00 70 bd dc fb 67 bc
       0.0074854796 -0.037726693 -0.058594357 -0.014159169

model/conv2d_2/BiasAdd/ReadVariableOp f4 [32]
000000 ad 63 ef bc e8 b4 6f bd 5a 11 05 bd 0e 86 f6 3a
       -0.029222334 -0.058522135 -0.03248725 0.0018808262
000010 16 7e da ba 9b 7d 07 3b 72 12 2c 3c e3 1a 3e bd
       -0.0016669657 0.0020674232 0.010502445 -0.04641236
000020 db fa 55 bd 38 ad f1 ba 59 40 75 bc 6d 71 31 bd
       -0.052241188 -0.0018438464 -0.014968955 -0.043321062
000030 3b 63 41 3d 02 c5 3e bd 0b 8e e7 3c 2c 5d 4c 3c
       0.047213774 -0.0465746 0.028265974 0.012473386
000040 b3 c6 ba 3c 0b 9e 39 3c ac 7a 6c bc c1 da 4f bc
       0.022799825 0.011329184 -0.014433544 -0.012686432
000050 9f af c5 3c c6 67 db 3a f6 38 91 3c a2 e7 d0 3c
       0.024131594 0.0016739301 0.017727356 0.025501076
000060 7a 0e 19 3c f7 18 48 bc 77 c7 03 3b 2f d8 76 3a
       0.00934183 -0.012212983 0.0020107904 0.0009416369
000070 2a 5b f9 3b 28 36 90 3c 16 d3 57 3c 8b 52 18 3d
       0.0076097446 0.017603949 0.013172885 0.037188094

model/conv2d_3/BiasAdd/ReadVariableOp f4 [32]
000000 cd 85 16 bd 85 31 39 bb 1d 57 06 3b 0f e4 59 bd
       -0.036748696 -0.0028258276 0.00204987 -0.05319601
000010 f5 b0 55 bd 41 89 13 3d 39 91 a3 3c 53 61 ae 3c
       -0.052170713 0.036019567 0.019966708 0.021286642
000020 bb 67 62 3a 11 58 7c 3c dc 9a 06 bc 3a 85 72 3c
       0.0008636673 0.015401856 -0.008215632 0.0148022715
000030 cc 79 a4 bc e8 16 b7 3c 77 43 2a bd e0 28 f8 bc
       -0.020077609 0.02234979 -0.041568246 -0.030292928
000040 64 40 0b bc c1 97 66 3c 4e 77 1e bc 89 f6 9c 3b
       -0.008499239 0.014074267 -0.009671999 0.0047901315
000050 04 ba 67 3b 37 13 8c bb b0 1f c6 3c 73 a3 4b bb
       0.0035358677 -0.0042747515 0.024185032 -0.0031072765
000060 84 80 6a bd bd f0 a1 bc 55 51 69 3c 53 13 d5 3b
       -0.05725147 -0.019768113 0.0142405825 0.0065025478
000070 22 61 bd 3c e3 18 c9 bc 21 c1 35 bc d8 27 62 3c
       0.023117606 -0.024548 -0.011093409 0.013803445

model/conv2d_4/BiasAdd/ReadVariableOp f4 [64]
000000 92 cc c8 3b 43 78 85 bd 8c b0 99 3c 14 e5 3f bc
       0.0061279023 -0.06517079 0.018760942 -0.011712331
000010 d4 26 dc bc 86 c6 87 3c 5d 43 eb bb 19 c0 bc bb
       -0.026873983 0.016574156 -0.007179661 -0.0057602045
000020 d1 7c 8a 3c b7 9e d2 3b 81 3f 8d 3b 82 a0 48 3c
       0.01690522 0.0064276117 0.004310549 0.012245299
000030 d7 fd 4d bd ae 77 2a 3c 24 40 2b bd 76 10 3b 3c
       -0.05029091 0.01040451 -0.041809216 0.011417499
000040 7c 68 5a 3c 5f 9c 9e 3c d0 da cf 3c 3c 49 53 3c
       0.013330575 0.019361673 0.025372893 0.012895878
000050 06 d2 23 3c a1 b2 05 bd c0 04 fd bb 1a 47 a8 3c
       0.009998804 -0.032641057 -0.0077215135 0.020541716
000060 c5 1a 66 3c 23 ec a2 3c d3 f7 5b 3c 9b 08 a4 bb
       0.014044468 0.01988799 0.013425785 -0.0050059087
000070 84 e8 13 bd 51 03 ac 3c 1e db 02 bd a7 40 46 bc
       -0.036110416 0.020997675 -0.031947248 -0.012100375
000080 90 0a 6d 3b 43 ea 9c 3c 1a 50 f0 bc f9 27 b6 3c
       0.0036169626 0.019154673 -0.02933507 0.022235857
000090 ef 45 af 3c c2 f3 9b 3c f6 f1 31 bc 15 08 8e 3c
       0.021395652 0.019037131 -0.010860911 0.017337838
0000a0 f7 41 ae 3c de 8c a9 3c ad f0 d9 3c 70 e0 d5 3c
       0.021271689 0.020697054 0.026604021 0.026107997
0000b0 a5 c6 c9 bc 85 78 1a bc 75 1c fa bc 60 58 38 3c
       -0.024630854 -0.009428148 -0.030531147 0.011251539
0000c0 21 59 94 3c 7c 09 24 3c 92 b1 70 3c 43 92 2e 3b
       0.018108906 0.010012027 0.014690774 0.0026637472
0000d0 51 d5 a1 bb 6c 57 39 3c 11 d3 19 bd 03 d4 94 bd
       -0.0049387594 0.011312347 -0.037554804 -0.072670005
0000e0 64 bf a2 bc 3d 73 14 3d f7 4e 6f bc 8d 04 c3 3c
       -0.019866653 0.036242712 -0.014606229 0.02380588
0000f0 b5 61 65 bc 8f 11 85 3c 46 36 9d bc 86 50 eb 3c
       -0.014000346 0.016243724 -0.019190919 0.02872492

model/conv2d_5/BiasAdd/ReadVariableOp f4 [64]
000000 b4 45 d8 3c 97 b3 e4 3c 84 dd b0 bb 50 ef bf bc
       0.026400425 0.027917666 -0.0053975005 -0.023429543
000010 fb bc b1 bc 05 d3 6a 3c 9b 0c 55 bb 57 b9 b8 3c
       -0.021696558 0.014332538 -0.0032508734 0.022549314
000020 11 49 0a 3c 8e 53 21 bc 34 5b bb bc 20 a1 a1 bb
       0.008440272 -0.009846581 -0.022870637 -0.0049325377
000030 30 cd ba bc 04 70 c6 3b 35 b4 04 3b 26 e7 d0 3b
       -0.02280292 0.006055834 0.0020249013 0.0063752113
000040 c3 2e 32 bc c2 4b a3 3c ef 1c cb 3c 9c a5 97 3a
       -0.010875407 0.019933585 0.02479407 0.0011569741
000050 73 e0 fd 3b 70 66 ce 3c 48 e9 7f 3c 77 56 b3 3c
       0.0077477037 0.02519533 0.015619583 0.021891816
000060 2b 28 c6 3c 27 3c b9 bb 5e 79 a2 bc 79 99 4c bb
       0.024189075 -0.0056529227 -0.019833263 -0.0031219407
000070 12 d3 57 bd 93 9d c5 3c 8b 6b 70 3c ac df 8a 3c
       -0.052691527 0.024122989 0.014674078 0.016952358
000080 14 2b 94 3c d3 dc 14 bd dc f0 82 bc 7a fc ad ba
       0.018086948 -0.036343407 -0.015983991 -0.0013274096
000090 75 a6 a0 3c 9c 5c 31 bc bb aa 42 3c 3a da 35 bb
       0.019610623 -0.010825302 0.011881526 -0.0027748481
0000a0 de 0a bc 3c 6f 87 38 3c 58 9d a6 3c ca 15 06 bd
       0.0229544 0.011262759 0.0203387 -0.032735623
0000b0 1c e8 91 3c 65 c1 20 bc 59 14 b9 3c 8e 56 c8 bc
       0.017810874 -0.009811734 0.02259271 -0.024455335
0000c0 da 88 ce bb 24 eb b1 3c 00 24 cf 3b 18 b7 af 3c
       -0.006302935 0.02171857 0.00632143 0.02144961
0000d0 61 2c 08 bd 56 fa 30 bb 04 59 5c 3c 69 33 b8 bc
       -0.033245448 -0.002700468 0.013448957 -0.022485452
0000e0 fb 7e 8e bc dc 48 91 bc 35 d5 99 bc 76 85 99 bc
       -0.017394533 -0.017734937 -0.018778423 -0.018740397
0000f0 f4 f9 ea bc 2c 03 bd 3c 43 e6 5d bb e3 60 2c 3c
       -0.02868364 0.023072802 -0.003385917 0.0105211465

model/conv2d_6/BiasAdd/ReadVariableOp f4 [64]
000000 93 5f 00 bc 33 c6 e8 3c 7e 7a 4c bc 21 62 24 bc
       -0.007835287 0.028414821 -0.012480376 -0.010033161
000010 79 64 38 3c 97 e8 d4 3c 8c c3 03 ba e5 e1 54 bc
       0.011254423 0.025989814 -0.0005026392 -0.012993311
000020 30 7b c8 bc ed 9f 92 bc 5d 54 cd bc ee 86 75 3c
       -0.024472803 -0.017898524 -0.025064642 0.014985783
000030 fc fa c6 3a 70 e0 b1 3c 8e a3 ad 3c 53 b5 ca 3b
       0.0015181 0.021713465 0.021196153 0.0061861663
000040 b5 9e 06 bc 7f a6 6f 3c 30 33 21 bd 07 49 1c 3d
       -0.00821655 0.014627098 -0.039355457 0.03815558
000050 d7 d6 da b8 55 27 37 3c 40 e7 c1 3c a3 94 e9 3c
       -0.00010435067 0.011178811 0.023669839 0.028513258
000060 1c d5 54 3c 04 bf 1f 3c d2 42 8d 3c 34 3c 53 bc
       0.012990262 0.0097501315 0.017243776 -0.0128927715
000070 a9 ad 60 3a 69 c2 d9 bc ca 19 a8 bc 06 e2 6b bb
       0.0008570799 -0.02658196 -0.02052011 -0.0035992875
000080 10 d6 7c bb 69 5f c8 3c 1c 3c b0 bb 60 93 c0 3c
       -0.003857974 0.024459558 -0.0053782593 0.023507774
000090 1a f5 ac 3c b1 c2 d8 3a 22 31 70 bc 69 70 2e bc
       0.021112967 0.0016537515 -0.014660152 -0.010646918
0000a0 a2 3a b7 3c 94 12 5e 3c dd 23 a7 3c 3c 03 b1 bc
       0.022366825 0.013554234 0.020402843 -0.021607988
0000b0 f8 98 99 3c 0e a7 df 3b 1f 28 27 3b 7f f3 4e 3c
       0.018749699 0.0068253344 0.0025506092 0.012631296
0000c0 72 c3 d7 3c e7 f8 58 bb 86 c7 e7 3b 16 90 d1 bc
       0.026338313 -0.0033107342 0.0070733456 -0.0255814
0000d0 5f 43 c2 3c df ed f5 3b 54 9e c5 3c 64 b7 0b bd
       0.023713766 0.007505163 0.024123348 -0.03411044
0000e0 10 f8 f0 3c 10 34 c9 3c 89 fe 08 bb 91 cd 80 3c
       0.02941516 0.024560958 -0.0020903668 0.015723022
0000f0 3a 73 b1 3c 22 16 c1 bb d3 13 c5 bc 88 dc d9 3b
       0.02166139 -0.005892531 -0.024057304 0.006648604

model/conv2d_7/BiasAdd/ReadVariableOp f4 [64]
000000 d1 56 93 3c e6 00 3c bb 3f 21 97 3c 6d 4c 9c bc
       0.017985733 -0.002868706 0.01844847 -0.019079411
000010 2f b4 c3 3b 50 56 10 3c 1f 12 fa 3c 42 c2 8c 3c
       0.0059724073 0.008809641 0.030526219 0.017182473
000020 82 78 d7 3c 1d 40 9e 3c 81 54 b1 bb 51 2d 8f 3c
       0.02630258 0.019317681 -0.005411685 0.017477663
000030 fe d2 f3 3c d4 9e d2 3c c8 53 0d bb 43 9d b9 3b
       0.029763695 0.0257105 -0.002156483 0.005664499
000040 1d 22 ea 3c d3 17 6b 3a 0e 98 b6 3c 85 e2 a2 bc
       0.02858072 0.00089680887 0.022289302 -0.019883404
000050 28 1e 48 bb bc 60 92 3c 1c 79 73 bc d3 9a 3c 3c
       -0.0030535553 0.017868392 -0.014860418 0.011511522
000060 85 c1 d7 3c 98 b5 ac 3c 99 5e b3 3c 9b 2d f4 3c
       0.026337394 0.021082684 0.021895694 0.029806903
000070 90 2d 4e 3c 7d 21 23 3c 4f 3d e3 3c e2 ef 7a bc
       0.012584105 0.009956715 0.027739195 -0.015315982
000080 22 47 18 3c 15 47 f9 3c 6f 09 d5 3c ab 86 23 bc
       0.009294303 0.030429402 0.026005475 -0.009980838
000090 89 42 4b 3b 17 19 52 3c 7d f1 b6 3a d1 d4 86 3c
       0.0031015 0.012823365 0.0013957467 0.0164589
0000a0 d5 b6 58 3c 22 33 90 3c 5f 82 8e 3c af 51 6c 3c
       0.013227184 0.017602507 0.01739615 0.014423772
0000b0 78 b0 2a 3c b9 7e ba 3c da 08 e3 3b 0b f6 7b 3c
       0.01041805 0.022765504 0.0069285454 0.015378485
0000c0 10 c1 02 3d 9d 12 f5 3c 84 57 ba 3c e8 58 2d 3c
       0.0319224 0.029916102 0.022746809 0.010580279
0000d0 ae 65 9b 3b 85 d9 1b bc 33 1d d2 3c ac ef 59 3c
       0.004742346 -0.00951231 0.025648689 0.013301771
0000e0 be 00 db 3c ee b8 15 3c 6e 7a f1 3c e0 ff 19 bb
       0.026733752 0.009138329 0.029477324 -0.002349846
0000f0 dc c1 46 3c 5d c2 07 3d 04 c9 13 3d 25 80 0c 3d
       0.012131181 0.033144344 0.036080375 0.034301896

model/conv2d/Conv2D f4 [16, 3, 3, 1]
000000 96 6b e5 3d f0 2e ca bd ca 07 41 bc 63 02 94 bd
       0.11202161 -0.09872234 -0.011781642 -0.07227018
000010 f5 a7 8f bd 77 99 49 3d 0e 01 b6 3d da a5 aa 3d
       -0.07014457 0.04921862 0.0888692 0.08332415
000020 13 ec 10 3e 81 46 65 3d f9 9f 10 bd be 43 04 3e
       0.14152555 0.05597544 -0.03530881 0.12916467
000030 1c 5a c1 3d 0c 6d ff 3d af 16 16 3e 45 d5 0c be
       0.09441015 0.12471971 0.1465709 -0.13753231
000040 ef 09 c6 bd c9 05 2d 3e 32 61 1e 3e 4b 60 97 3c
       -0.096698634 0.16896738 0.15466765 0.018478533
000050 a5 fe c1 bd be c8 43 3e 51 81 97 3c fa 01 8a 3d
       -0.09472398 0.19119546 0.01849428 0.06738658
000060 2f fc 98 bd 65 f1 bd 3d 98 6a bb 3d ff ff 74 bd
       -0.07469975 0.09274558 0.091511905 -0.05981445
000070 3e eb 8b bd 22 0c ea 3d 6d 8b 2b be b0 38 3b be
       -0.06831978 0.114280954 -0.16752405 -0.18283343
000080 0c 93 a4 bb ac bc 72 bc a9 c2 37 bd f7 ae 91 bd
       -0.005022412 -0.014815491 -0.044863377 -0.0711345
000090 99 92 13 be 00 2e 17 3e b0 af 08 3e 37 93 f1 bc
       -0.14411391 0.14763641 0.1334827 -0.029489143
0000a0 ce 71 01 3e 06 aa 5c 3d 93 2c 35 be ee 6c 72 bd
       0.1264107 0.053873084 -0.17692785 -0.059185915
0000b0 6e 4f 1f be d8 d5 b3 bd 37 9f 95 3b ee 25 f1 bd
       -0.15557644 -0.08781022 0.004566099 -0.11774813
0000c0 eb 90 2c 3e 3e a5 66 3d 14 64 39 bd 1d 1c c2 bc
       0.16852157 0.05630993 -0.045261458 -0.023695046
0000d0 ab 33 3e 3e e7 76 94 bc d6 fa d9 3b 03 3f 8b bd
       0.18574397 -0.018123103 0.0066522164 -0.06799128
0000e0 a8 8d 82 3d 41 db 2d 3d 3c 36 d8 bd 65 5f d0 bd
       0.06374675 0.042445425 -0.105572194 -0.10174445
0000f0 9d 32 ae 3d 25 da 19 be a9 41 25 be ed b3 88 bd
       0.085057475 -0.15024622 -0.16138329 -0.06674943
000100 43 a2 fd 3d 08 e1 c0 3d 95 4f 19 be e8 55 99 3d
       0.123844646 0.09417921 -0.14971764 0.074870884
000110 3e 99 08 be 0b 8b 88 3d 27 4d 1e 3d 1a 75 51 3d
       -0.13339707 0.06667145 0.038647797 0.051137067
000120 5e 17 4e 3d 07 05 d9 3d 47 3c 81 3d 3e 70 c8 3d
       0.050315253 0.10596662 0.06310325 0.097870335
000130 ae 28 20 be 7f 21 a7 bd 88 40 c2 3d 41 84 4e 3d
       -0.15640518 -0.08160686 0.094849646 0.050419096
000140 a1 42 a2 3c 44 0b 87 3d 0b 9d 21 3d f0 22 33 bd
       0.019807162 0.065939456 0.03945641 -0.04373449
000150 6a 38 cc 3c 07 a7 12 3e 6f 8b d6 3c ea 38 da 3d
       0.024929244 0.14321528 0.026189534 0.10655387
000160 3a f2 84 bd e8 5d 91 bc 65 01 aa 3d 68 2d d4 3c
       -0.064915136 -0.017744973 0.08301047 0.025900558
000170 b8 f1 88 bb 03 11 08 3e 9e 07 38 3e 42 e9 28 3b
       -0.0041792057 0.1328774 0.17971656 0.0025773798
000180 61 04 11 3e ae e5 8c 3d da 30 fa bd 88 96 1f 3e
       0.14161827 0.068797454 -0.12216349 0.15584767
000190 47 0e 50 3d 6f 9f 19 3e bf 35 32 be 0f 05 ff 3d
       0.050794866 0.15002225 -0.17403315 0.12452137
0001a0 a4 a6 87 bd 18 3d 02 bd bd 49 33 3e 8e b2 30 3c
       -0.06623581 -0.031796545 0.17508598 0.010784758
0001b0 85 85 17 bc 5e 27 b0 3d 0c c4 06 3e a5 83 e7 3c
       -0.009248142 0.08601259 0.13160723 0.028261015
0001c0 0f ad 25 3e 01 0c d0 3d 26 bc 0a 3e a5 87 66 bd
       0.16179298 0.101585396 0.13548335 -0.056281704
0001d0 1e 4c 71 3b ea 0d 8d bd b6 c5 11 3d 5f 36 af 3d
       0.003681905 -0.068874195 0.035588942 0.08555292
0001e0 fe 3a 1c 3e 79 67 1f bc 56 74 e8 3c a7 60 b0 3d
       0.15256879 -0.00972926 0.028375786 0.08612185
0001f0 b2 58 d8 bd 76 94 a4 3a c1 3b b0 bc f6 98 10 be
       -0.10563792 0.0012556452 -0.021512868 -0.1412085
000200 57 95 28 be 4c 03 27 be b0 cf bc bd 44 6e 24 3e
       -0.16463219 -0.16309851 -0.09219301 0.16057688
000210 39 f7 a3 3d cb f3 35 be 11 44 eb bb 51 ee c4 bd
       0.08006138 -0.17768781 -0.007179745 -0.09615768
000220 c5 d5 41 3e f2 48 3f 3e df 99 24 be 6f ba 0d bd
       0.18929203 0.1868017 -0.16074322 -0.034601625
000230 9b fa 28 be 09 bc f1 bd 41 63 8c bd bb 4d 89 bc
       -0.16501848 -0.11803443 -0.06854869 -0.016760698

model/conv2d_1/Conv2D i1 [16, 3, 3, 16]
000000 48 d8 b3 87 50 b1 c8 dd 1b cc c5 95 39 20 1f 30
       72 -40 -77 -121 80 -79 -56 -35 27 -52 -59 -107 57 32 31 48
000010 0e eb dc 55 a1 65 9e b0 92 38 e1 ca b3 d4 3a fb
       14 -21 -36 85 -95 101 -98 -80 -110 56 -31 -54 -77 -44 58 -5
000020 be 74 4b c3 29 d4 08 c0 55 16 8e 39 7c 8f b1 1c
       -66 116 75 -61 41 -44 8 -64 85 22 -114 57 124 -113 -79 28
000030 16 6b cc 67 0e db f9 e9 60 31 06 83 1b c9 2f f5
       22 107 -52 103 14 -37 -7 -23 96 49 6 -125 27 -55 47 -11
000040 cb 98 fa 55 bf c0 45 8e 75 5c f8 c2 63 c3 ad 61
       -53 -104 -6 85 -65 -64 69 -114 117 92 -8 -62 99 -61 -83 97
000050 c8 f8 17 4a 1e 37 40 25 9c a7 75 e3 4a db 23 72
       -56 -8 23 74 30 55 64 37 -100 -89 117 -29 74 -37 35 114
000060 32 0a d9 1e ca 51 37 c2 3e 95 34 c6 45 d7 09 86
       50 10 -39 30 -54 81 55 -62 62 -107 52 -58 69 -41 9 -122
000070 f8 f6 91 08 81 a2 b6 d3 13 df e2 86 e1 51 85 1a
       -8 -10 -111 8 -127 -94 -74 -45 19 -33 -30 -122 -31 81 -123 26
000080 85 95 33 12 38 94 78 d5 e7 f9 56 69 45 dc f5 b9
       -123 -107 51 18 56 -108 120 -43 -25 -7 86 105 69 -36 -11 -71
000090 00 8d ae 06 b9 c2 74 b8 f1 f0 ef 35 14 70 54 45
       0 -115 -82 6 -71 -62 116 -72 -15 -16 -17 53 20 112 84 69
0000a0 39 ff 53 d5 49 ef 6c 9f bb 85 55 dc 16 9f 19 6f
       57 -1 83 -43 73 -17 108 -97 -69 -123 85 -36 22 -97 25 111
0000b0 50 8a f2 76 16 b5 9e a1 95 cc a8 b8 9b d7 cf fa
       80 -118 -14 118 22 -75 -98 -95 -107 -52 -88 -72 -101 -41 -49 -6
0000c0 cb d0 ef f5 60 04 3f 34 2e fa cf 91 4f 57 e7 19
       -53 -48 -17 -11 96 4 63 52 46 -6 -49 -111 79 87 -25 25
0000d0 65 cc 4e ae 41 0f 3b 30 a7 b9 49 af 3a 3b 47 1e
       101 -52 78 -82 65 15 59 48 -89 -71 73 -81 58 59 71 30
0000e0 5e d0 7f 93 6a d4 93 04 b4 f4 d1 42 a2 44 ad 20
       94 -48 127 -109 106 -44 -109 4 -76 -12 -47 66 -94 68 -83 32
0000f0 04 c0 26 f0 1c af 4f 4d ac a1 3f d0 b7 33 8c c0
       4 -64 38 -16 28 -81 79 77 -84 -95 63 -48 -73 51 -116 -64

model/conv2d_2/Conv2D i1 [32, 3, 3, 16]
000000 c4 03 1d 11 f3 4c 01 30 c7 60 c8 e8 f8 f6 08 1d
       -60 3 29 17 -13 76 1 48 -57 96 -56 -24 -8 -10 8 29
000010 6e f3 bb 85 d6 9b a3 2c 6b b6 9f 7f ff d9 db 62
       110 -13 -69 -123 -42 -101 -93 44 107 -74 -97 127 -1 -39 -37 98
000020 4b 34 92 5c 35 ac 12 d4 e1 ef 94 d7 a8 b8 45 1e
       75 52 -110 92 53 -84 18 -44 -31 -17 -108 -41 -88 -72 69 30
000030 97 00 96 42 be 24 fc 1a 64 c6 d6 7b ce 6b ac f6
       -105 0 -106 66 -66 36 -4 26 100 -58 -42 123 -50 107 -84 -10
000040 e7 ce ee 61 d7 cc c6 d1 6a a8 d1 7e ea 47 9a ca
       -25 -50 -18 97 -41 -52 -58 -47 106 -88 -47 126 -22 71 -102 -54
000050 67 4d 13 73 a7 20 38 c9 4b f3 a1 5b bf 5d c5 43
       103 77 19 115 -89 32 56 -55 75 -13 -95 91 -65 93 -59 67
000060 73 3f 73 e8 40 fa 11 1f 6b b6 2a 19 ab 20 e4 a4
       115 63 115 -24 64 -6 17 31 107 -74 42 25 -85 32 -28 -92
000070 b0 8e 0c a4 a0 c8 49 be 45 0c 9c 4f ce ef 6d 11
       -80 -114 12 -92 -96 -56 73 -66 69 12 -100 79 -50 -17 109 17
000080 75 36 23 5d 19 dc 3c 11 de 79 f6 bb 50 b7 68 9b
       117 54 35 93 25 -36 60 17 -34 121 -10 -69 80 -73 104 -101
000090 d7 8d 4d fc d4 d2 a9 ce 34 46 ef 4a 2d c9 2c b6
       -41 -115 77 -4 -44 -46 -87 -50 52 70 -17 74 45 -55 44 -74
0000a0 00 9f 1f fe 53 d8 bf 69 b9 c0 cf 41 8c aa 51 5e
       0 -97 31 -2 83 -40 -65 105 -71 -64 -49 65 -116 -86 81 94
0000b0 9e a3 2e dd 5e a4 19 d9 14 9f e5 13 39 24 49 1d
       -98 -93 46 -35 94 -92 25 -39 20 -97 -27 19 57 36 73 29
0000c0 8d 33 39 05 1c eb 34 bc f2 ae 26 ce a4 cf f1 c7
       -115 51 57 5 28 -21 52 -68 -14 -82 38 -50 -92 -49 -15 -57
0000d0 b0 ad 24 e0 c0 c0 2c 23 31 ab 5a c5 1e f1 b2 0e
       -80 -83 36 -32 -64 -64 44 35 49 -85 90 -59 30 -15 -78 14
0000e0 d3 4a c9 1b f1 ef 7f 69 e1 c8 9a 58 d3 4f dc 4b
       -45 74 -55 27 -15 -17 127 105 -31 -56 -102 88 -45 79 -36 75
0000f0 f0 dc ef d9 55 5f 25 09 b3 e2 12 14 0e f3 5f 10
       -16 -36 -17 -39 85 95 37 9 -77 -30 18 20 14 -13 95 16

model/conv2d_3/Conv2D i1 [32, 3, 3, 32]
000000 13 0c 90 7f c2 3a 5b 0a f6 a2 f0 a2 31 31 62 5d
       19 12 -112 127 -62 58 91 10 -10 -94 -16 -94 49 49 98 93
000010 fd c7 cc 54 1f d7 e6 fa 40 dd 2b 40 6b f6 ac 40
       -3 -57 -52 84 31 -41 -26 -6 64 -35 43 64 107 -10 -84 64
000020 24 ca f9 14 72 41 bd 6f 12 b1 c9 9f 9c 48 32 4c
       36 -54 -7 20 114 65 -67 111 18 -79 -55 -97 -100 72 50 76
000030 9c ff 1e 10 c7 5c f1 f2 32 61 48 0e e4 d7 07 a2
       -100 -1 30 16 -57 92 -15 -14 50 97 72 14 -28 -41 7 -94
000040 59 1b a2 4a 4d 8c 09 27 4e 38 a9 16 5a 22 22 14
       89 27 -94 74 77 -116 9 39 78 56 -87 22 90 34 34 20
000050 9f ff 31 a3 98 fa e6 71 00 95 f7 36 c6 cb 3d f3
       -97 -1 49 -93 -104 -6 -26 113 0 -107 -9 54 -58 -53 61 -13
000060 fd 2e f3 a0 0d c8 5e e4 0c d6 74 bc b6 be 28 01
       -3 46 -13 -96 13 -56 94 -28 12 -42 116 -68 -74 -66 40 1
000070 4d 0e c1 d4 08 21 b5 22 d5 b3 e8 23 0c f7 db 8c
       77 14 -63 -44 8 33 -75 34 -43 -77 -24 35 12 -9 -37 -116
000080 d1 cb 13 ab 01 ba c3 4a f4 15 fd 00 3e 52 ae a6
       -47 -53 19 -85 1 -70 -61 74 -12 21 -3 0 62 82 -82 -90
000090 0d da 5f 17 43 a6 e2 aa 32 ac 1b b7 61 c7 e4 b3
       13 -38 95 23 67 -90 -30 -86 50 -84 27 -73 97 -57 -28 -77
0000a0 fe eb 23 27 31 ad 95 02 f0 1b 20 6e 64 6f a6 1e
       -2 -21 35 39 49 -83 -107 2 -16 27 32 110 100 111 -90 30
0000b0 d9 2b c4 a7 c7 4d 0f 99 d2 57 dc a3 b0 66 c0 df
       -39 43 -60 -89 -57 77 15 -103 -46 87 -36 -93 -80 102 -64 -33
0000c0 c7 10 9d 1f aa d6 56 5f 05 d6 a4 d7 bd 82 9c 60
       -57 16 -99 31 -86 -42 86 95 5 -42 -92 -41 -67 -126 -100 96
0000d0 10 fd fa 5f 12 87 bc e5 a9 1a 29 ec 1e 4b 02 22
       16 -3 -6 95 18 -121 -68 -27 -87 26 41 -20 30 75 2 34
0000e0 58 c8 59 d9 91 de 00 33 ae b2 59 ff fa 55 eb 44
       88 -56 89 -39 -111 -34 0 51 -82 -78 89 -1 -6 85 -21 68
0000f0 18 da 3a 4b 40 87 6e 29 3e 69 51 88 68 63 bf 1a
       24 -38 58 75 64 -121 110 41 62 105 81 -120 104 99 -65 26

model/conv2d_4/Conv2D i1 [64, 3, 3, 32]
000000 18 01 10 d0 26 54 d4 f9 c5 53 b8 9a 4a 2c ce 6c
       24 1 16 -48 38 84 -44 -7 -59 83 -72 -102 74 44 -50 108
000010 3d 69 72 f3 62 f0 0f 52 66 c9 e2 bf 17 d0 60 3f
       61 105 114 -13 98 -16 15 82 102 -55 -30 -65 23 -48 96 63
000020 e0 16 0a 8c be 15 28 41 47 11 59 f1 db 4a 28 c7
       -32 22 10 -116 -66 21 40 65 71 17 89 -15 -37 74 40 -57
000030 9b e6 3d 4f 9d 11 38 af a2 2c a4 4a 4b 52 00 df
       -101 -26 61 79 -99 17 56 -81 -94 44 -92 74 75 82 0 -33
000040 be aa 13 45 20 ee c4 46 fc ec 73 39 fb 9d 63 3d
       -66 -86 19 69 32 -18 -60 70 -4 -20 115 57 -5 -99 99 61
000050 6f 98 e4 11 df de f2 57 af f1 c5 53 b1 3a cf 76
       111 -104 -28 17 -33 -34 -14 87 -81 -15 -59 83 -79 58 -49 118
000060 6a 88 96 2b fa e8 ba dc 73 61 de c0 8a 3f 5d bb
       106 -120 -106 43 -6 -24 -70 -36 115 97 -34 -64 -118 63 93 -69
000070 d7 9f bd 51 eb a7 db 2d 0a 07 2a 38 26 a0 b2 9e
       -41 -97 -67 81 -21 -89 -37 45 10 7 42 56 38 -96 -78 -98
000080 ea 95 07 8a 38 4c 18 9d f3 ce fb 3d aa d0 b7 a6
       -22 -107 7 -118 56 76 24 -99 -13 -50 -5 61 -86 -48 -73 -90
000090 52 5a 10 48 90 92 8f 6d f1 6d 6d c2 a3 b7 f2 5e
       82 90 16 72 -112 -110 -113 109 -15 109 109 -62 -93 -73 -14 94
0000a0 e7 ed b5 12 67 03 14 eb 21 13 5a b3 a5 db 21 d8
       -25 -19 -75 18 103 3 20 -21 33 19 90 -77 -91 -37 33 -40
0000b0 6e 6d 1f a5 46 f9 ff a0 e1 89 9d 98 8d b5 5d a4
       110 109 31 -91 70 -7 -1 -96 -31 -119 -99 -104 -115 -75 93 -92
0000c0 fb 0c 93 fb b6 68 4d 36 3b 92 29 42 e9 f2 16 76
       -5 12 -109 -5 -74 104 77 54 59 -110 41 66 -23 -14 22 118
0000d0 63 ca e4 21 c5 b5 10 c9 b3 ae b5 62 8a ce bd 91
       99 -54 -28 33 -59 -75 16 -55 -77 -82 -75 98 -118 -50 -67 -111
0000e0 ed de 1c c6 6c d3 58 17 2a a4 ef 3b c7 0f 6e 25
       -19 -34 28 -58 108 -45 88 23 42 -92 -17 59 -57 15 110 37
0000f0 ed f2 bf 10 49 b9 52 31 66 b3 4d 1d e5 ca 20 c0
       -19 -14 -65 16 73 -71 82 49 102 -77 77 29 -27 -54 32 -64

model/conv2d_5/Conv2D i1 [64, 3, 3, 64]
000000 1f f2 f0 4d 0b f9 2d 89 5d 99 3f df 84 c8 bd 4b
       31 -14 -16 77 11 -7 45 -119 93 -103 63 -33 -124 -56 -67 75
000010 3c 53 2b 96 e9 95 19 54 f9 a4 f7 5a eb eb 92 b5
       60 83 43 -106 -23 -107 25 84 -7 -92 -9 90 -21 -21 -110 -75
000020 99 09 ac e0 df b6 70 e3 4c cb d0 96 02 12 63 5f
       -103 9 -84 -32 -33 -74 112 -29 76 -53 -48 -106 2 18 99 95
000030 e4 e6 db 1e b8 30 d0 aa ca 65 90 a7 c4 5c 41 62
       -28 -26 -37 30 -72 48 -48 -86 -54 101 -112 -89 -60 92 65 98
000040 07 b7 22 51 1e 4b 01 f0 52 39 d1 a1 e0 ec 52 14
       7 -73 34 81 30 75 1 -16 82 57 -47 -95 -32 -20 82 20
000050 aa 51 24 1c d8 e6 0b 2d 09 6a 42 c1 8b 99 0b 27
       -86 81 36 28 -40 -26 11 45 9 106 66 -63 -117 -103 11 39
000060 8d 46 d1 c6 65 c4 f7 2d c1 2f 36 cb ea f5 54 46
       -115 70 -47 -58 101 -60 -9 45 -63 47 54 -53 -22 -11 84 70
000070 46 c4 ce c8 3f 3b 81 44 38 d2 f8 5b 60 f3 17 1d
       70 -60 -50 -56 63 59 -127 68 56 -46 -8 91 96 -13 23 29
000080 95 47 58 c5 0b 5f ff 01 29 c8 5a 5f f6 75 0d c2
       -107 71 88 -59 11 95 -1 1 41 -56 90 95 -10 117 13 -62
000090 db e4 62 ee a6 de f1 a5 c5 c6 d1 dd 0a d3 41 af
       -37 -28 98 -18 -90 -34 -15 -91 -59 -58 -47 -35 10 -45 65 -81
0000a0 bb b8 25 62 03 fd 1e 71 36 96 ca b6 ac 79 62 7c
       -69 -72 37 98 3 -3 30 113 54 -106 -54 -74 -84 121 98 124
0000b0 ec d5 c3 e7 44 4b e8 30 3a 60 f3 5a ab f7 ad 8e
       -20 -43 -61 -25 68 75 -24 48 58 96 -13 90 -85 -9 -83 -114
0000c0 c6 c4 59 12 34 3c d1 05 48 8d 5c 42 5b 24 ce fc
       -58 -60 89 18 52 60 -47 5 72 -115 92 66 91 36 -50 -4
0000d0 0e 96 07 b5 ec 02 57 df 2e ab a3 64 2e 46 a3 b3
       14 -106 7 -75 -20 2 87 -33 46 -85 -93 100 46 70 -93 -77
0000e0 95 20 e7 d4 ca f0 08 31 c4 10 ae e9 0c ae c5 de
       -107 32 -25 -44 -54 -16 8 49 -60 16 -82 -23 12 -82 -59 -34
0000f0 9a 47 9e 8d 11 35 1b 0f 00 4e ad cf 15 ba 98 da
       -102 71 -98 -115 17 53 27 15 0 78 -83 -49 21 -70 -104 -38

model/conv2d_6/Conv2D i1 [64, 3, 3, 64]
000000 a5 d2 b5 00 56 42 f4 6a 42 ae 67 d0 e4 a7 13 cb
       -91 -46 -75 0 86 66 -12 106 66 -82 103 -48 -28 -89 19 -53
000010 13 bc d9 29 61 17 a0 f5 34 54 21 d6 ad 55 c2 f5
       19 -68 -39 41 97 23 -96 -11 52 84 33 -42 -83 85 -62 -11
000020 29 2a 98 e9 1b d7 fa a6 36 16 4d 52 d2 e3 3d 13
       41 42 -104 -23 27 -41 -6 -90 54 22 77 82 -46 -29 61 19
000030 bd 74 2f ef e0 d0 0d 1c 5c a4 47 10 54 ad 30 4c
       -67 116 47 -17 -32 -48 13 28 92 -92 71 16 84 -83 48 76
000040 ac fb e6 38 bb dd e0 23 61 30 f3 56 a7 89 1d 37
       -84 -5 -26 56 -69 -35 -32 35 97 48 -13 86 -89 -119 29 55
000050 53 9f 42 bf e0 3b 59 4c c8 f8 9a 22 9f f2 36 2a
       83 -97 66 -65 -32 59 89 76 -56 -8 -102 34 -97 -14 54 42
000060 07 91 64 f8 bd 2a 3c b6 c4 94 e8 40 95 f7 18 16
       7 -111 100 -8 -67 42 60 -74 -60 -108 -24 64 -107 -9 24 22
000070 9a b9 d1 a0 a4 12 33 f1 b6 01 28 f3 0c c1 e7 aa
       -102 -71 -47 -96 -92 18 51 -15 -74 1 40 -13 12 -63 -25 -86
000080 27 fa 9f a2 9e fd 24 15 d1 35 18 d1 c3 e4 cc c7
       39 -6 -97 -94 -98 -3 36 21 -47 53 24 -47 -61 -28 -52 -57
000090 bc 9e 5a eb 36 47 49 a1 06 93 b6 66 40 17 94 59
       -68 -98 90 -21 54 71 73 -95 6 -109 -74 102 64 23 -108 89
0000a0 e5 9e ad b2 d9 48 28 4a 71 91 c1 d7 c1 bb d4 a6
       -27 -98 -83 -78 -39 72 40 74 113 -111 -63 -41 -63 -69 -44 -90
0000b0 6a ff d8 3f b6 fc 37 a6 53 9c b7 c5 d6 8f 2e 31
       106 -1 -40 63 -74 -4 55 -90 83 -100 -73 -59 -42 -113 46 49
0000c0 d4 fb dc e4 3b 9f b8 19 fd 4e be 09 9b 00 6d b3
       -44 -5 -36 -28 59 -97 -72 25 -3 78 -66 9 -101 0 109 -77
0000d0 ec 0b 3a 2b d6 f3 18 42 de c4 07 ad 77 a1 5c ae
       -20 11 58 43 -42 -13 24 66 -34 -60 7 -83 119 -95 92 -82
0000e0 d7 67 6e 2b a9 36 53 b6 b2 4c 64 26 d4 e2 8f 39
       -41 103 110 43 -87 54 83 -74 -78 76 100 38 -44 -30 -113 57
0000f0 15 77 fc c6 33 d6 c6 f0 b0 60 5b 33 cf cb 28 0a
       21 119 -4 -58 51 -42 -58 -16 -80 96 91 51 -49 -53 40 10

model/conv2d_7/Conv2D i1 [64, 3, 3, 64]
000000 2d 5a 4c a5 c0 22 4c c4 05 9f 16 e2 0a 61 33 03
       45 90 76 -91 -64 34 76 -60 5 -97 22 -30 10 97 51 3
000010 ad 6f c7 29 c4 13 22 58 9e 17 22 33 cd b0 81 81
       -83 111 -57 41 -60 19 34 88 -98 23 34 51 -51 -80 -127 -127
000020 b9 36 da eb bf fe 5c 5d 17 cc b7 49 e9 99 d4 b6
       -71 54 -38 -21 -65 -2 92 93 23 -52 -73 73 -23 -103 -44 -74
000030 b0 d3 6a b1 17 1f 00 a4 0f 50 dc be 69 d1 d8 c4
       -80 -45 106 -79 23 31 0 -92 15 80 -36 -66 105 -47 -40 -60
000040 4b 2a 5c 8c 65 08 ae bf 0e 1d c5 c4 b6 b4 fc 95
       75 42 92 -116 101 8 -82 -65 14 29 -59 -60 -74 -76 -4 -107
000050 ff 49 bd bf e1 f8 57 e2 1b c4 c7 31 56 e1 c4 af
       -1 73 -67 -65 -31 -8 87 -30 27 -60 -57 49 86 -31 -60 -81
000060 ca bb b9 e1 c2 4c 49 f1 0b 28 ef 38 0a 2d 4c 94
       -54 -69 -71 -31 -62 76 73 -15 11 40 -17 56 10 45 76 -108
000070 41 f4 67 ad 70 ea 5c 56 00 a1 70 9e 1d 98 96 d5
       65 -12 103 -83 112 -22 92 86 0 -95 112 -98 29 -104 -106 -43
000080 44 4e b5 a4 6a 75 e1 2a 0d a7 06 65 11 17 fb 25
       68 78 -75 -92 106 117 -31 42 13 -89 6 101 17 23 -5 37
000090 c5 f6 42 dd a0 2c 5f a4 46 3b ca 9e 26 75 29 f9
       -59 -10 66 -35 -96 44 95 -92 70 59 -54 -98 38 117 41 -7
0000a0 43 0c 12 72 57 0b 9a b9 5c 0e 60 b6 04 e2 16 37
       67 12 18 114 87 11 -102 -71 92 14 96 -74 4 -30 22 55
0000b0 f4 91 54 44 56 f3 d7 cf 96 28 dd e6 4b ef ad cc
       -12 -111 84 68 86 -13 -41 -49 -106 40 -35 -26 75 -17 -83 -52
0000c0 5c 92 92 f4 b2 e1 55 d8 1e c7 16 c6 60 26 41 67
       92 -110 -110 -12 -78 -31 85 -40 30 -57 22 -58 96 38 65 103
0000d0 41 5f 11 aa 4b 1c 8d 48 02 b2 5d f6 9e 9a 15 d5
       65 95 17 -86 75 28 -115 72 2 -78 93 -10 -98 -102 21 -43
0000e0 59 a2 44 aa fd ac d6 38 f7 2b 18 12 e4 ca 59 39
       89 -94 68 -86 -3 -84 -42 56 -9 43 24 18 -28 -54 89 57
0000f0 39 1a 4a cb 58 51 6c d7 17 98 f8 25 5c 8a 07 5a
       57 26 74 -53 88 81 108 -41 23 -104 -8 37 92 -118 7 90

model/dense/MatMul i1 [256, 1152] scale=0.0009580645 zero_point=0
000000 05 e7 e0 e5 17 c0 f4 ff d8 d5 bc 05 d3 1f f4 ce
       0.0047903224 -0.023951612 -0.030658064 -0.025867742 0.022035483 -0.06131613 -0.011496774 -0.0009580645 -0.03832258 -0.041196775 -0.06514838 0.0047903224 -0.043112904 0.0297 -0.011496774 -0.047903225
000010 14 1d 0d 06 b0 e8 15 c0 e3 01 20 eb 1b cc fe 35
       0.01916129 0.02778387 0.0124548385 0.005748387 -0.07664516 -0.022993548 0.020119354 -0.06131613 -0.02778387 0.0009580645 0.030658064 -0.020119354 0.025867742 -0.049819354 -0.001916129 0.05077742
000020 cf f5 d1 d1 ed db db 01 dc 33 e2 21 ed f3 1e f5
       -0.046945162 -0.010538709 -0.045029033 -0.045029033 -0.018203225 -0.035448387 -0.035448387 0.0009580645 -0.03449032 0.04886129 -0.028741935 0.03161613 -0.018203225 -0.0124548385 0.028741935 -0.010538709
000030 eb 18 0b 04 fc 2e f5 23 e0 3f 18 f1 cb 24 2d 23
       -0.020119354 0.022993548 0.010538709 0.003832258 -0.003832258 0.044070967 -0.010538709 0.033532258 -0.030658064 0.060358066 0.022993548 -0.014370968 -0.05077742 0.03449032 0.043112904 0.033532258
000040 f9 11 ec d2 e1 f0 cc fd d0 be f1 d4 02 e9 e3 03
       -0.0067064515 0.016287096 -0.01916129 -0.044070967 -0.0297 -0.015329032 -0.049819354 -0.0028741935 -0.045987096 -0.06323226 -0.014370968 -0.042154837 0.001916129 -0.022035483 -0.02778387 0.0028741935
000050 2b 19 f8 0f c8 fb 09 f0 22 db 18 e6 fc 0c 15 38
       0.041196775 0.023951612 -0.007664516 0.014370968 -0.053651612 -0.0047903224 0.00862258 -0.015329032 0.03257419 -0.035448387 0.022993548 -0.024909677 -0.003832258 0.011496774 0.020119354 0.053651612
000060 39 c8 38 ee 23 14 29 dd 0b 0d d1 27 c2 3e d7 24
       0.05460968 -0.053651612 0.053651612 -0.01724516 0.033532258 0.01916129 0.039280646 -0.033532258 0.010538709 0.0124548385 -0.045029033 0.037364516 -0.0594 0.0594 -0.039280646 0.03449032
000070 10 2f cc 36 d8 f4 da ec 19 30 c4 cc c3 21 00 2e
       0.015329032 0.045029033 -0.049819354 0.051735483 -0.03832258 -0.011496774 -0.03640645 -0.01916129 0.023951612 0.045987096 -0.05748387 -0.049819354 -0.058441937 0.03161613 0.0 0.044070967
000080 ba 05 c8 e1 cb 17 1b d1 0a d2 bd 03 18 04 be 12
       -0.067064516 0.0047903224 -0.053651612 -0.0297 -0.05077742 0.022035483 0.025867742 -0.045029033 0.009580645 -0.044070967 -0.06419032 0.0028741935 0.022993548 0.003832258 -0.06323226 0.01724516
000090 1b 0d fa 21 d8 05 cc 18 ec 2d cb 33 d1 02 08 b1
       0.025867742 0.0124548385 -0.005748387 0.03161613 -0.03832258 0.0047903224 -0.049819354 0.022993548 -0.01916129 0.043112904 -0.05077742 0.04886129 -0.045029033 0.001916129 0.007664516 -0.075687096
0000a0 fe dc e4 f4 03 d5 d4 ce d8 f5 bf 37 0d 22 ec 2a
       -0.001916129 -0.03449032 -0.026825806 -0.011496774 0.0028741935 -0.041196775 -0.042154837 -0.047903225 -0.03832258 -0.010538709 -0.06227419 0.05269355 0.0124548385 0.03257419 -0.01916129 0.04023871
0000b0 f3 e9 24 e3 2a ec c3 2c 19 f2 ef fa f0 cf 3a ea
       -0.0124548385 -0.022035483 0.03449032 -0.02778387 0.04023871 -0.01916129 -0.058441937 0.042154837 0.023951612 -0.013412903 -0.016287096 -0.005748387 -0.015329032 -0.046945162 0.05556774 -0.021077419
0000c0 1c 45 de ec e9 04 e3 c7 1a dd d1 c8 2d 33 20 d0
       0.026825806 0.06610645 -0.03257419 -0.01916129 -0.022035483 0.003832258 -0.02778387 -0.05460968 0.024909677 -0.033532258 -0.045029033 -0.053651612 0.043112904 0.04886129 0.030658064 -0.045987096
0000d0 ee c9 ed c4 25 c9 3f 1e 29 36 13 0d c3 fb 30 d9
       -0.01724516 -0.05269355 -0.018203225 -0.05748387 0.035448387 -0.05269355 0.060358066 0.028741935 0.039280646 0.051735483 0.018203225 0.0124548385 -0.058441937 -0.0047903224 0.045987096 -0.037364516
0000e0 cc 3e cb 38 e9 ef f6 30 23 07 19 04 c9 ce 19 c8
       -0.049819354 0.0594 -0.05077742 0.053651612 -0.022035483 -0.016287096 -0.009580645 0.045987096 0.033532258 0.0067064515 0.023951612 0.003832258 -0.05269355 -0.047903225 0.023951612 -0.053651612
0000f0 e6 2b 18 fe 10 04 fc 00 3d cc 1c 3e bf 0b f6 30
       -0.024909677 0.041196775 0.022993548 -0.001916129 0.015329032 0.003832258 -0.003832258 0.0 0.058441937 -0.049819354 0.026825806 0.0594 -0.06227419 0.010538709 -0.009580645 0.045987096
